best_model.pth (torch, 86498 bytes, 22 tensors)

cls_token f4 [1, 1, 32]
0	0xbf4dcb0a	-0.8038794
1	0x3e7143c9	0.23561014
2	0xbfec0f91	-1.844225
3	0x3e11002f	0.14160226
4	0xbdfda40a	-0.123848036
5	0xbf0bb488	-0.54572344
6	0xbf06366f	-0.5242681
7	0x3e81f9f0	0.25386
8	0xbe12693e	-0.14297959
9	0xbf804e40	-1.002388
10	0xbe8dba63	-0.27681264
11	0x3fe209a3	1.7659191
12	0x3f005cc9	0.5014158
13	0x3f1f8f29	0.6232782
14	0xbf1416a5	-0.5784705
15	0xbefdc283	-0.49562463
16	0xbeaead86	-0.34116763
17	0xbf45957e	-0.7718123
18	0x3ea242c2	0.31691557
19	0x3ed10d01	0.40830234
20	0xbf5a81ff	-0.8535461
21	0xbfba7caf	-1.45693
22	0x3ee22818	0.44171214
23	0xbcdb8d0e	-0.026800659
24	0x3f0d874f	0.5528459
25	0xbf287246	-0.6579937
26	0x3e41165c	0.18856186
27	0x3efeb232	0.49745327
28	0xbf010617	-0.5039992
29	0xbf84bd8a	-1.0370343
30	0xbfd2bebd	-1.6464459
31	0xbec9ae67	-0.3939087

project_flattened.weight f4 [32, 196]
0	0x3cd3d4a5	0.025858233
1	0xbbf33485	-0.0074220323
2	0x3d5bc2cf	0.05365258
3	0xbca11088	-0.019661203
4	0xbc8d9c32	-0.017286394
5	0xbcf28d1b	-0.0296083
6	0x3d376323	0.04477228
7	0xbc9ebf49	-0.019378321
8	0xbb6707c0	-0.0035252422
9	0x3d4e5e49	0.050382886
10	0x3ca542b9	0.020173417
11	0xbd77ef24	-0.060530797
12	0xbc0e8390	-0.008698359
13	0xbc0ea56e	-0.008706434
14	0xbcae8d90	-0.021307737
15	0xbd87b5bd	-0.06626461
16	0x3cf219e1	0.029553356
17	0xbbd36038	-0.006450679
18	0x3d1a5ea6	0.03768792
19	0x3d84fa4d	0.064930536
20	0x3cb4547f	0.022012947
21	0x3d257254	0.040392235
22	0xbc676d96	-0.014125248
23	0x3b8320e0	0.0040017217
24	0x3c5645c1	0.013078154
25	0xbc66945f	-0.01407346
26	0xbd03e5e4	-0.032201663
27	0x3bf2acc1	0.007405848
28	0xbcbcf649	-0.023066657
29	0xbd57a3c0	-0.0526464
30	0x3d95fca0	0.07323575
31	0x3ddd10e5	0.10794238
32	0x3d5add01	0.053433422
33	0x3d876a77	0.066121034
34	0x3cc4ffc6	0.024047744
35	0xbb094e35	-0.0020951156
36	0xb8fea25f	-0.00012141908
37	0xbb554892	-0.0032544476
38	0xbd1e928f	-0.038713988
39	0x3d0f1b41	0.0349381
40	0xbccd7715	-0.025081197
41	0xbd1c7830	-0.038200557
42	0x3db14fdb	0.08657809
43	0xbc21e53b	-0.009881313
44	0x3db0810e	0.08618365
45	0xbc038d00	-0.0080292225
46	0xbc9801ae	-0.018555488
47	0xbca24b4e	-0.019811299
48	0xbd94fd1b	-0.072748385
49	0xbd0310ad	-0.031998325
50	0xbd9f5537	-0.07779925
51	0xbcee9803	-0.02912522
52	0x3b040508	0.00201446
53	0xbcbf9fdd	-0.023391658
54	0x3cb2f20b	0.02184393
55	0xbdec7a69	-0.115467854
56	0xbd03017b	-0.031983834
57	0xbd8bc917	-0.06825464
58	0xbd6f070a	-0.058356322
59	0xbcd56d02	-0.026052956
60	0xbc92de47	-0.017928256
61	0xbd161901	-0.03664494
62	0x3c100845	0.008791034
63	0xbd447d2c	-0.047970936
64	0x3c18199a	0.009283448
65	0xbcf9fb02	-0.030515198
66	0x3d7ac4c7	0.061222818
67	0xbd413c23	-0.04717649
68	0x3d515919	0.05111036
69	0x3cd9c14c	0.026581429
70	0xbd6ec284	-0.058290973
71	0x3a52e3d6	0.00080448145
72	0xbcfdea8c	-0.03099563
73	0x3d218eda	0.039442874
74	0xbd729ca9	-0.059231434
75	0x3d20cc14	0.039257124
76	0x3d308e63	0.04310454
77	0xbd169f9c	-0.03677331
78	0xb9410640	-0.00018408243
79	0x3be35aba	0.0069383057
80	0x3ceb4df1	0.028723689
81	0xbbc26075	-0.0059319087
82	0xbc1e713e	-0.009670554
83	0x3ac2984a	0.0014846411
84	0xbc79d139	-0.0152476365
85	0xbaa5db55	-0.0012653867
86	0x3b190b6f	0.0023352762
87	0xbd1dfc8a	-0.03857092
88	0xbc20f248	-0.009823389
89	0xbbbc4ff1	-0.0057468344
90	0x3db869a4	0.09004524
91	0xbcde1eb3	-0.027114248
92	0x3dd00645	0.10157446
93	0x3d11c2dc	0.035586223
94	0x3cab7765	0.020930955
95	0x3cee2bbd	0.02907359
96	0xbb131482	-0.0022442644
97	0xbb9bf1d5	-0.0047590532
98	0xbcdde1d7	-0.027085228
99	0x39b95512	0.00035349332
100	0x3cfd418a	0.03091504
101	0x3cf848ae	0.030308094
102	0x3c5ba0f2	0.013405072
103	0x3d9ed7a4	0.07755974
104	0x3d095137	0.033524718
105	0x3dbe19e8	0.09282285
106	0x3d024e91	0.031813208
107	0x3c422ff7	0.011852256
108	0x3d770b67	0.06031361
109	0x3d1f34d7	0.03886875
110	0x3a526e4b	0.0008027299
111	0xbd2adb98	-0.041713327
112	0x3dbaad03	0.091150306
113	0xbc829355	-0.015939394
114	0xbc8eedd0	-0.017447382
115	0x3dfa7995	0.12230221
116	0x3d90818b	0.07055958
117	0x3cfb13fc	0.030649178
118	0x3ced3b34	0.028958894
119	0x3dc0fe7f	0.09423541
120	0x3de61cf1	0.11235989
121	0x3c42214e	0.011848761
122	0x3d821908	0.063524306
123	0xbca781fd	-0.020447725
124	0xbd0eae73	-0.034834336
125	0xbcde1f99	-0.027114676
126	0x3cd5f1d1	0.026116284
127	0xbc95618d	-0.018234992
128	0x3b03c555	0.0020106633
129	0x3d6df3af	0.058093723
130	0x3d015220	0.03157246
131	0x3d9c835d	0.07642243
132	0x3de55515	0.11197869
133	0x3d0885ac	0.033330604
134	0xbd24145b	-0.040058475
135	0xbca88309	-0.020570295
136	0x3d714d0e	0.058911376
137	0xbd1d67b1	-0.038428966
138	0x3c847e0e	0.016173389
139	0xbd62e000	-0.055389404
140	0xbcc4cf0f	-0.024024514
141	0x3d3bdb3f	0.045863386
142	0x3cfead63	0.031088537
143	0x3c9feed3	0.01952306
144	0xbd7ab394	-0.061206415
145	0x3c5a3cd8	0.01332017
146	0xbcb771cd	-0.022393132
147	0xbd42483f	-0.04743218
148	0x3c576ef8	0.013149016
149	0x3d31b148	0.04338196
150	0x3d22ede2	0.039777644
151	0xbd5bae82	-0.05363322
152	0xbd4d5769	-0.05013219
153	0xbd376cfd	-0.044781674
154	0xbbec3282	-0.0072081694
155	0x3d0d7380	0.034533978
156	0xbcd36d87	-0.025809063
157	0xbd5d4afa	-0.05402658
158	0xbd8466ac	-0.064648956
159	0xbdcad833	-0.09904518
160	0xbb5b8417	-0.003349548
161	0xbdb96ddb	-0.090541564
162	0xbd830be3	-0.063987516
163	0x3c9045ce	0.01761141
164	0xbd5ad935	-0.0534298
165	0x3cd83eff	0.026397226
166	0xbde1b486	-0.1102076
167	0xbdee48bd	-0.116349675
168	0x3b848c6f	0.0040450613
169	0x3d966740	0.07343912
170	0x3d3e1fdf	0.046417113
171	0x3cb37bfa	0.021909703
172	0x3d4b74a1	0.049671773
173	0xbd84d672	-0.06486215
174	0x3cd98fbe	0.0265578
175	0xbd442ffb	-0.04789732
176	0xbdcbef5c	-0.099577636
177	0xbc00b3ce	-0.007855369
178	0x3d616837	0.055031028
179	0xbd33c33f	-0.043887373
180	0xbdb8e7cd	-0.090285875
181	0xbdccc03c	-0.09997603
182	0x3b66e1ee	0.003522988
183	0x3ca5fe02	0.020262722
184	0xbd248026	-0.040161274
185	0xbd06a707	-0.032874133
186	0x3ccf163d	0.025279159
187	0xbd283a4b	-0.041071218
188	0xbcb7d55f	-0.02244061
189	0x3d72df23	0.05929483
190	0x3d61a460	0.0550884
191	0xbc802682	-0.015643362
192	0x3d4b4d19	0.049634073
193	0xbd825227	-0.063633256
194	0x3d380bdb	0.04493318
195	0xbd4096b0	-0.047018707
196	0x3d082092	0.033234186
197	0xbd9c182a	-0.076217964
198	0xbc03a0cb	-0.0080339415
199	0x3da2f2c9	0.07956464
200	0x3d832bc9	0.06404836
201	0x3c76bcf5	0.015059699
202	0xbc258754	-0.0101030655
203	0xbd8e596f	-0.06950652
204	0xbcdcbe94	-0.026946343
205	0xbd9436c8	-0.07237011
206	0xbcd8f6b1	-0.02648482
207	0xbdbf91a7	-0.09353953
208	0xbc81fd40	-0.01586783
209	0xbc210494	-0.009827752
210	0x3d18e6d3	0.037329506
211	0xbd6af4ee	-0.05736249
212	0xbd645f34	-0.055754855
213	0x3d03069c	0.031988725
214	0xbd6491c2	-0.055803068
215	0x3d66fc37	0.056392875
216	0xbcad2ac0	-0.021138549
217	0xbd2c308b	-0.04203848
218	0x3c834e81	0.016028645
219	0xbd4411df	-0.047868606
220	0xbc26e840	-0.010187209
221	0x3d19df02	0.037566192
222	0x3d7a1d3f	0.061063047
223	0xbb85180d	-0.004061705
224	0xbd675ee6	-0.056486987
225	0xbd6a7b63	-0.057246577
226	0x3d0f4521	0.034978036
227	0xbd188c61	-0.03724325
228	0x3bc869b7	0.006116118
229	0x3cda20ba	0.026626933
230	0x3d58eae8	0.0529584
231	0xbd383d45	-0.044980306
232	0x3c9ff955	0.01952807
233	0xbd5d451d	-0.05402099
234	0x3d1d80d7	0.03845295
235	0x3d05626f	0.032564577
236	0x3d21c1bb	0.039491396
237	0xbc852f8e	-0.016258027
238	0xbd84b6a2	-0.06480147
239	0xbc058ed7	-0.008151731
240	0xbd11f464	-0.03563346
241	0x3d1c188e	0.038109355
242	0x3cfb2bc7	0.030660523
243	0xbcc38238	-0.023865804
244	0xbca35fe3	-0.019943183
245	0x3ca27ded	0.019835437
246	0xbd499320	-0.049212575
247	0x3ccee1f2	0.025254223
248	0x3c94e10f	0.018173723
249	0xbd421211	-0.04738051
250	0x3d05d042	0.032669313
251	0x3d0357fe	0.032066338
252	0x3c81ab94	0.015828885
253	0xbbe9619f	-0.007122233
254	0xbcdf7a80	-0.027280092
255	0x3d0581db	0.032594543

project_flattened.bias f4 [32]
0	0xbd9327c1	-0.07185317
1	0xbdff2a3d	-0.12459228
2	0x3cadc441	0.021211745
3	0xbd01f496	-0.031727396
4	0xbde17260	-0.110081434
5	0xbcff63bc	-0.031175487
6	0xbd2a9426	-0.04164519
7	0x3d6b9c5a	0.057522155
8	0x3e061d45	0.13097103
9	0x3d8e9445	0.06961874
10	0x3d5d270f	0.053992327
11	0x3d30ba7a	0.043146588
12	0x3da4866c	0.080334514
13	0x3d9fb545	0.07798246
14	0x3e06cc3a	0.13163844
15	0xbe21378c	-0.15743846
16	0x3d4a742d	0.0494272
17	0xbd836ef0	-0.06417644
18	0x3d50817c	0.050904736
19	0xbe18458d	-0.14870282
20	0xbb8715c7	-0.004122469
21	0xbd899663	-0.06718137
22	0xbc67144c	-0.01410396
23	0xbd9e1f79	-0.07720847
24	0xbdabe801	-0.083938606
25	0x3d5e3d2d	0.05425756
26	0xbd238472	-0.03992123
27	0x3dfe7005	0.1242371
28	0x3dc71e5a	0.09722586
29	0x3d821428	0.06351501
30	0xbd68eb0e	-0.05686479
31	0x3b8a4faf	0.004220925

encoder_layers.layers.0.layer_norm1.weight f4 [32]
0	0x3f863aec	1.0486732
1	0x3f8a15a0	1.078785
2	0x3f8500fb	1.0390924
3	0x3f811ebf	1.0087508
4	0x3f8c1a9d	1.0945622
5	0x3f8a45a0	1.0802498
6	0x3f8dcb00	1.1077576
7	0x3f887e5a	1.066356
8	0x3f8ecac1	1.1155626
9	0x3f8f7bb3	1.1209625
10	0x3f88330d	1.064058
11	0x3f82a55d	1.0206715
12	0x3f8d7e9e	1.1054265
13	0x3f854433	1.0411438
14	0x3f86e9a3	1.054005
15	0x3f8aac71	1.0833875
16	0x3f8da294	1.106524
17	0x3f842a5b	1.0325426
18	0x3f9462be	1.1592634
19	0x3f8fe4da	1.1241715
20	0x3f89bc0b	1.0760511
21	0x3f85dd63	1.0458187
22	0x3f89b99f	1.0759772
23	0x3f91377c	1.1345057
24	0x3f8b0aeb	1.0862707
25	0x3f88493c	1.0647349
26	0x3f887f3b	1.0663828
27	0x3f88105c	1.0629992
28	0x3f8e1c50	1.110239
29	0x3f8c26a1	1.0949289
30	0x3f86f491	1.0543386
31	0x3f88cae6	1.068692

encoder_layers.layers.0.layer_norm1.bias f4 [32]
0	0x3d716489	0.05893377
1	0xbd2692e3	-0.040667426
2	0xbb87deda	-0.004146439
3	0xbc6fc366	-0.014633989
4	0xbc5bedec	-0.013423424
5	0xbc95107c	-0.018196337
6	0x3c6fd36e	0.014637811
7	0xbab611ad	-0.0013890766
8	0x3be2fe9a	0.0069273235
9	0xbc504b91	-0.012713329
10	0x3c88960e	0.016673114
11	0x3c505304	0.012715105
12	0x3c4c9dac	0.012488764
13	0xbb9e0aad	-0.00482305
14	0x3d38595a	0.045007087
15	0x3c7d2aee	0.01545213
16	0xbc8bb3b8	-0.01705347
17	0xbc5f4bb6	-0.013628891
18	0xbaadffc4	-0.0013275077
19	0xbbc665d3	-0.006054619
20	0xbc184ad9	-0.009295189
21	0x3bac9190	0.005266376
22	0x3c1c59e4	0.009542916
23	0x3c085d91	0.008323089
24	0x3cc1509c	0.023598008
25	0x3c56fe3c	0.013122138
26	0x3be679b7	0.0070335525
27	0x3cc7fefd	0.02441358
28	0xbbd13d74	-0.0063854996
29	0xbd0d23a1	-0.034457806
30	0x3c861fc5	0.01637257
31	0xbcbf8f00	-0.023383617

encoder_layers.layers.0.layer_norm2.weight f4 [32]
0	0x3f94f319	1.1636688
1	0x3f899280	1.0747833
2	0x3f9d92e6	1.2310455
3	0x3f9a3c1d	1.2049595
4	0x3f94698d	1.1594712
5	0x3f9c0eeb	1.2192053
6	0x3f9e50e2	1.2368433
7	0x3f94d4dd	1.1627461
8	0x3f96a353	1.1768593
9	0x3f9d028c	1.2266402
10	0x3f90c5f8	1.1310415
11	0x3f8fa75c	1.1222949
12	0x3f9844bf	1.189598
13	0x3f8c2c1c	1.0950961
14	0x3f92b3f8	1.1461172
15	0x3f9d91e6	1.231015
16	0x3f99faf2	1.2029707
17	0x3f9c0dea	1.2191746
18	0x3f973dc5	1.1815726
19	0x3f93b530	1.1539669
20	0x3f8d7212	1.1050436
21	0x3f955c6e	1.1668832
22	0x3f962e31	1.1732846
23	0x3fa9c441	1.3263017
24	0x3f959d60	1.1688652
25	0x3fa2d754	1.2721963
26	0x3f989467	1.1920289
27	0x3f8ec91e	1.1155126
28	0x3f8da83d	1.1066967
29	0x3f948191	1.160204
30	0x3f9d6387	1.2295998
31	0x3f99dccb	1.2020506

encoder_layers.layers.0.layer_norm2.bias f4 [32]
0	0xbd2f41dc	-0.042787418
1	0x3d248e22	0.04017461
2	0xbd9a404d	-0.07531796
3	0x3da7bedc	0.081907004
4	0x3c53195f	0.012884467
5	0xbb4ed4e8	-0.0031560007
6	0xbd9abfb1	-0.075560935
7	0xbc3eebc5	-0.0116528915
8	0xbcc07dcd	-0.023497486
9	0x3d0302b6	0.031985007
10	0xbc960bc6	-0.01831616
11	0x3ccf3b48	0.025296822
12	0xbc0c2641	-0.008554042
13	0x3d2cbc23	0.04217161
14	0xbd114a2f	-0.035471138
15	0xbbfae142	-0.0076562474
16	0x3c7eb89b	0.015546943
17	0x3c969059	0.018379377
18	0x3c7e4666	0.015519714
19	0x3d6130ce	0.054978184
20	0xbcc2125c	-0.023690395
21	0xbbfaab65	-0.0076498264
22	0x3be6bdc8	0.0070416667
23	0x3d8c0785	0.06837372
24	0x3bd3a7db	0.006459219
25	0xbbb7c82f	-0.0056085805
26	0xbc5a1e43	-0.013312879
27	0x3d1f8804	0.038948074
28	0xbd8b27ec	-0.06794724
29	0xbd1b5bad	-0.037929226
30	0xbdd58bcb	-0.10427054
31	0xbbc33738	-0.0059575103

encoder_layers.layers.0.attention.linear_q.weight f4 [32, 32]
0	0xbc9a4436	-0.018831354
1	0xbdbf40da	-0.09338541
2	0x3b382e54	0.0028103786
3	0xba6bcdc2	-0.0008995199
4	0x3df7bbe0	0.12096381
5	0xbe08ca03	-0.13358311
6	0x3d777162	0.060410865
7	0xbc78f846	-0.015195912
8	0xbd9b6dd6	-0.07589309
9	0xbe0e9e17	-0.13927494
10	0x3d315216	0.043291174
11	0xbd1162f2	-0.035494752
12	0x3cc2be4b	0.02377238
13	0xbbe5ed85	-0.00701684
14	0x3d7fc566	0.062444113
15	0xbdd9433b	-0.10608526
16	0xbe018b56	-0.12650809
17	0xba8bc323	-0.0010663014
18	0xbbc237ce	-0.0059270626
19	0x3dc23eb2	0.094846144
20	0xbe36d24b	-0.17853658
21	0x3e2d8de3	0.16948657
22	0xbb45bbbd	-0.0030171715
23	0xbde94af4	-0.11391249
24	0x3deb0f44	0.11477521
25	0xbd81ad93	-0.06331935
26	0x3ca1ec18	0.019765899
27	0xbc917fec	-0.017761193
28	0xbd86b1b2	-0.065768614
29	0xbe148bf7	-0.14506517
30	0x3d2e5f36	0.04257127
31	0x3d5e4670	0.054266393
32	0x3cf2660d	0.029589677
33	0x3dc0d427	0.09415465
34	0xbda1f375	-0.07907764
35	0x3e0a0f5f	0.13482426
36	0x3df7a1de	0.120914206
37	0x3e09140e	0.13386557
38	0xbc4e4be2	-0.012591334
39	0xbde1406a	-0.10998614
40	0x3e02df04	0.12780386
41	0xbda3cef0	-0.079984546
42	0x3d9807dd	0.07423375
43	0xbe2663b9	-0.16248979
44	0x3de87a71	0.11351479
45	0x3d473d76	0.048642598
46	0x3d7bf3a2	0.061511643
47	0xbd49663e	-0.04916977
48	0xbe0b0aa8	-0.13578284
49	0x3d6cab0c	0.05778031
50	0xbdb0598d	-0.086108305
51	0x3e0c2ff0	0.13690162
52	0xbbf0a625	-0.0073440247
53	0xbe3cae91	-0.18425967
54	0xbdc21f43	-0.09478619
55	0x3e0ffcea	0.14061323
56	0xbcdd6258	-0.027024433
57	0xbdb4d7ed	-0.08830247
58	0x3d3dbe91	0.046324316
59	0xbe29ed1e	-0.1659436
60	0xbd8e9ee7	-0.06963902
61	0x3dab111d	0.083528735
62	0x3e0288b4	0.1274746
63	0x3deb4c4b	0.11489161
64	0xbb65fb82	-0.0035092537
65	0xbde70733	-0.1128067
66	0x3b81d7b5	0.003962482
67	0xbe12c63e	-0.14333436
68	0xbdba72a1	-0.09103895
69	0xbdd71002	-0.105011
70	0xbdd12d64	-0.10213736
71	0x3da5a6f3	0.08088484
72	0xbdd8d93e	-0.10588311
73	0xbe128e28	-0.14312041
74	0xbc8c76dd	-0.017146522
75	0xbda11302	-0.078649536
76	0x3e311ecc	0.17296904
77	0xbdd59594	-0.104289204
78	0xbe16f40b	-0.14741533
79	0xbdba3450	-0.09092009
80	0xbdc00b2a	-0.093771294
81	0xbd404650	-0.046942055
82	0xbd86ed01	-0.06588174
83	0x3e1fe1b9	0.1561345
84	0x3d002eea	0.03129474
85	0xbd42be1a	-0.047544576
86	0x3b02c64c	0.001995462
87	0x3d5d6077	0.054047074
88	0x3e287a33	0.16452865
89	0xbc3460aa	-0.011009375
90	0x3e135dc9	0.14391245
91	0xbda963ec	-0.08271012
92	0x3d8ed3bb	0.06973978
93	0xbe2fa718	-0.17153585
94	0xbdd6485a	-0.10463019
95	0x3c3702d7	0.011170111
96	0xbc572e44	-0.013133589
97	0x3dee40c8	0.1163345
98	0xbd573944	-0.052544847
99	0xbd1ab895	-0.037773687
100	0x3c2af34b	0.010433982
101	0x3da283e5	0.07935313
102	0x3d6aa25e	0.05728375
103	0x3de0b166	0.10971336
104	0xbd973fa2	-0.07385184
105	0x3e27f216	0.16400942
106	0xbd85aed8	-0.065274894
107	0xbdcb82b1	-0.09937037
108	0x3d065bf9	0.032802556
109	0xbdd9ccfa	-0.10634799
110	0x3c89d734	0.01682625
111	0x3da4009c	0.08007929
112	0x3d2fcc2a	0.042919315
113	0xbe0186ac	-0.1264903
114	0xbd82b51a	-0.06382199
115	0x3dcec2a4	0.100957185
116	0x3d8791ae	0.06619583
117	0xbc839b02	-0.016065124
118	0x3e0abf31	0.13549496
119	0xbe36f2f9	-0.17866124
120	0x3d96ead8	0.07369012
121	0xbde94409	-0.1138993
122	0xbde84096	-0.11340444
123	0xbddf2b2b	-0.108969055
124	0x3e1a8a18	0.15091741
125	0x3b946ce6	0.0045295833
126	0xbdf1e8fc	-0.11812016
127	0xbd8b5449	-0.068031855
128	0x3d44be2d	0.04803293
129	0xbe1aecef	-0.15129445
130	0x3cb5273e	0.022113439
131	0xbd4a935e	-0.049456947
132	0xbd3cefe5	-0.04612722
133	0x3da1ca5e	0.078999266
134	0x3d5b06be	0.053473227
135	0x3e352c38	0.1769265
136	0xbbbd1bb1	-0.0057711233
137	0xbdda68f2	-0.10664548
138	0x3cb3f1b5	0.02196584
139	0x3cbd19b4	0.023083545
140	0xbdda20d7	-0.10650795
141	0x3e281c87	0.16417132
142	0x3e1ab9c3	0.15109925
143	0xbe0fa4a5	-0.1402765
144	0xbe3fa541	-0.18715383
145	0xbd2b2ae5	-0.041788954
146	0xbddf7e72	-0.109127894
147	0xbd9f760c	-0.077861875
148	0x3e2127b6	0.15737805
149	0x3e0b26f6	0.13589081
150	0x3d370d07	0.04469016
151	0x3e1fb50f	0.15596412
152	0x3e3c188f	0.18368743
153	0xbe0bb4ed	-0.13643236
154	0x3e16273f	0.14663409
155	0x3d442e53	0.04789574
156	0x3de1a58a	0.11017902
157	0x3e1eeede	0.15520808
158	0x3d929459	0.07157201
159	0x3a51a661	0.00079975097
160	0x3d593d1d	0.053036798
161	0x3e00a066	0.12561187
162	0xbd9c6ce6	-0.07637958
163	0x3dac1639	0.08402676
164	0x3c453ee7	0.012038923
165	0xbd4324eb	-0.04764263
166	0x3db06fff	0.086151116
167	0xbddee7c2	-0.10884048
168	0x3d32213f	0.043488737
169	0x3cfdd578	0.030985579
170	0xbe1dc238	-0.1540612
171	0x3c7a7621	0.015286953
172	0x3d8a5383	0.0675421
173	0xbe00d6e7	-0.12581979
174	0xbe336d08	-0.17522061
175	0xbd82e24b	-0.06390818
176	0xbe140031	-0.14453198
177	0xbe16e419	-0.1473545
178	0x3da1561e	0.07877754
179	0xbd7032c1	-0.058642153
180	0xbd5ea403	-0.054355633
181	0x3d1a98e9	0.037743483
182	0xbdf25dd9	-0.11834306
183	0x3d9b36c1	0.07578803
184	0x3c75cac6	0.015001958
185	0xbe2ed24f	-0.17072414
186	0xbda1b52e	-0.078958854
187	0x3ce3e302	0.027818207
188	0xbe3324dd	-0.17494531
189	0xbda74d10	-0.081689954
190	0xbd91f9e6	-0.071277425
191	0x3dc1bb2a	0.09459527
192	0xbddabb22	-0.10680224
193	0xbde3e0b2	-0.111268416
194	0xbcd66b8b	-0.026174327
195	0x3d05a80a	0.032630958
196	0x3d89fb0a	0.06737335
197	0x3e078f3e	0.13238236
198	0xbce17fcc	-0.027526759
199	0x3da291c0	0.07937956
200	0xbbe36bc0	-0.006940335
201	0xbd1774ce	-0.036976628
202	0x3d5bd081	0.05366564
203	0xbe0e1b93	-0.13877706
204	0x3c9a4cae	0.018835392
205	0x3dd9afff	0.10629272
206	0xbca5d465	-0.02024288
207	0xbd023827	-0.031791832
208	0xbe258601	-0.161644
209	0x3e077c37	0.13230978
210	0xbdfacefa	-0.12246509
211	0xbdf59b6b	-0.11992534
212	0xbc123f2b	-0.008926193
213	0x3dc42a3c	0.09578368
214	0xbbfe3dc5	-0.0077588283
215	0x3cb40ab8	0.021977767
216	0xbd4f5175	-0.050614793
217	0xbbf5b37d	-0.0074982033
218	0xbe18c17f	-0.14917563
219	0x3e1ec746	0.15505704
220	0x3d8ef9b9	0.069812246
221	0xbdbd2563	-0.092356466
222	0xbd43a28d	-0.047762442
223	0x3c77072b	0.015077393
224	0x3d0e3ab8	0.034723967
225	0xbe21ede0	-0.15813398
226	0xbdc4453a	-0.095835164
227	0x3e04df98	0.12975919
228	0x3ab4cce0	0.0013793968
229	0x3d15e8aa	0.03659884
230	0xbde7a85f	-0.11311411
231	0x3e0a9e3f	0.13536929
232	0xbdbd97c2	-0.09257461
233	0xbd0d314e	-0.03447085
234	0x3de55b0a	0.11199005
235	0xbde434e2	-0.11142899
236	0x3d9b72a0	0.07590222
237	0x3dc782ec	0.09741768
238	0xbdd93612	-0.10606016
239	0xbdfd8468	-0.1237877
240	0xbb5ef8dc	-0.0034022843
241	0xbd44eb6f	-0.04807609
242	0xbe0b6c9d	-0.13615651
243	0x3db167c6	0.08662371
244	0xbdcb974d	-0.09940968
245	0x3d64e8c3	0.05588604
246	0xbcbc1fe5	-0.022964427
247	0x3d9f516f	0.07779204
248	0xbdbc18c3	-0.091844104
249	0x3dfbc39c	0.12293169
250	0xbe0f5ad2	-0.13999489
251	0xbd89cf5d	-0.067290045
252	0xbdbecb11	-0.093160756
253	0x3c66aead	0.014079732
254	0x3ab08526	0.0013467416
255	0x3e1e885e	0.15481707

encoder_layers.layers.0.attention.linear_q.bias f4 [32]
0	0x3e1e848b	0.15480249
1	0xbd3b895f	-0.045785304
2	0xbd671197	-0.05641326
3	0xbd8bfe87	-0.068356566
4	0x3be40e38	0.006959703
5	0xbd059661	-0.032614116
6	0xbdc9b598	-0.098490894
7	0xbd512379	-0.05105922
8	0x3ce0f7cf	0.027461914
9	0x3e1f808e	0.15576383
10	0xbdcbf304	-0.09958461
11	0xbc23e228	-0.01000265
12	0xbdd8ea04	-0.1059151
13	0xbac459c4	-0.0014980366
14	0xbe0d1707	-0.13778315
15	0x3dba0eb0	0.09084833
16	0xbb98efc6	-0.004667255
17	0xbd941e81	-0.07232381
18	0x3d93faa4	0.0722554
19	0x3c83c383	0.016084438
20	0x3da2c1cd	0.07947121
21	0x3de9b0dc	0.114106864
22	0xbd731e73	-0.05935521
23	0xbe1ff785	-0.15621765
24	0xbd139445	-0.036030073
25	0x3e0ef49d	0.139605
26	0xbce43cff	-0.027861116
27	0xbd649a33	-0.05581112
28	0x3db1a7f5	0.086746134
29	0xb7a461ee	-1.9595926e-05
30	0xbe0c015a	-0.1367239
31	0xbd801697	-0.06254309

encoder_layers.layers.0.attention.linear_k.weight f4 [32, 32]
0	0xbacca512	-0.001561316
1	0x3e0f9a27	0.14023648
2	0x3e1407d5	0.14456113
3	0xbe1efa5c	-0.15525192
4	0x3de24c11	0.11049665
5	0xbd9cef50	-0.07662833
6	0x3c8566e8	0.016284421
7	0xbe34e8a7	-0.17666875
8	0x3d2fde9a	0.0429369
9	0x3dd4671c	0.10371229
10	0xbbf9eee8	-0.007627357
11	0xbdf057b4	-0.11735478
12	0xbd4dbcfc	-0.050229058
13	0xbe2de92a	-0.16983476
14	0x3a251643	0.0006297568
15	0xba2ff729	-0.000671255
16	0x3e110a61	0.14164115
17	0x3d16d136	0.036820613
18	0x3dd69749	0.10478074
19	0x3e0bcb58	0.13651788
20	0x3d5e7ecb	0.054320138
21	0x3d91f6e8	0.07127172
22	0xbbfb88c6	-0.007676217
23	0x3dd2da6b	0.10295566
24	0xbcdbf336	-0.02684937
25	0xbd9c9ce8	-0.07647115
26	0xbdba43a5	-0.090949334
27	0x3e18918c	0.14899272
28	0xbd08beba	-0.033385016
29	0x3dc874fe	0.097879395
30	0xbcf446c8	-0.029818907
31	0xbd32890a	-0.043587722
32	0x3dc069ae	0.09395157
33	0xbe18a41a	-0.1490635
34	0x3df25668	0.11832887
35	0x3de90732	0.113783255
36	0x3de407f9	0.11134333
37	0x3e0198a2	0.12655881
38	0xbe24273a	-0.16030589
39	0x3e23d777	0.16000162
40	0x3d4494b8	0.04799339
41	0xbca920ce	-0.020645525
42	0x3e17a3e2	0.1480861
43	0x3d08bf7e	0.033385746
44	0xbe083b1f	-0.13303803
45	0x3e4a84f5	0.19777282
46	0xbd85e22b	-0.06537279
47	0xbe179d34	-0.14806062
48	0x3ccea0f6	0.025223237
49	0x3cd12418	0.025529906
50	0xbc8e4998	-0.017369077
51	0x3d1fce72	0.03901524
52	0x3dcdcf9a	0.100493625
53	0xbe08ba76	-0.13352379
54	0x3dffef91	0.124968655
55	0xbe0cb8d7	-0.13742386
56	0xbdd8bd68	-0.105830014
57	0xbe342d3c	-0.1759538
58	0x3db6d5c9	0.08927495
59	0xbe0de399	-0.13856353
60	0xbe26f50d	-0.16304417
61	0x3e20bd70	0.15697265
62	0xbe14fc58	-0.14549387
63	0x3e263af2	0.16233423
64	0x3e02210c	0.12707919
65	0x3d47a558	0.04874167
66	0x3d2c71a4	0.042100564
67	0x3d3d811e	0.046265714
68	0xbdc18734	-0.09449616
69	0xbdc2d875	-0.09513942
70	0xbe34340e	-0.17597982
71	0xbd29f202	-0.041490562
72	0xbdfa7ef3	-0.12231245
73	0x3e001a7a	0.125101
74	0xbd12709f	-0.035751935
75	0xbcaa22e0	-0.020768583
76	0x3dbc8179	0.092043824
77	0xbe098e3a	-0.13433161
78	0x3e22948f	0.15876983
79	0x3d831460	0.064003706
80	0xbd2b6ee2	-0.041853793
81	0x3c6aff13	0.014343041
82	0x3d686c2a	0.05674378
83	0xbd16e2fc	-0.036837563
84	0x3dba851a	0.09107418
85	0x3e113e73	0.14183979
86	0xbd3e3542	-0.04643751
87	0x3ca09a07	0.019604696
88	0xbc28cbb9	-0.0103024775
89	0xbcfebf38	-0.03109704
90	0x3db3349d	0.087502696
91	0x3d973305	0.07382778
92	0x3e182f33	0.14861755
93	0xbcb413b2	-0.021982048
94	0xbb8e73e8	-0.004347313
95	0x3d82eb7a	0.0639257
96	0xbe28e1c8	-0.16492379
97	0x3e02ef5d	0.12786622
98	0xbe369d37	-0.1783341
99	0xbda33570	-0.07969177
100	0xbc8ff7e8	-0.017574266
101	0x3e102e03	0.14080052
102	0x3b822cb4	0.003972614
103	0x3c98696f	0.018604962
104	0x3dfacc16	0.122459576
105	0xbdecf996	-0.11571042
106	0x3d7c720f	0.061632212
107	0x3de246cb	0.11048659
108	0xbe30f67c	-0.17281526
109	0x3e1ad844	0.15121561
110	0xbe3ab431	-0.182328
111	0xbd754b7a	-0.059886433
112	0xbe39dabc	-0.18149847
113	0xbc9e9e94	-0.019362725
114	0x3e1bbb22	0.15208104
115	0x3cb39ad6	0.021924417
116	0x3cb42bf7	0.02199362
117	0x3df377aa	0.118880585
118	0xbe3d8d61	-0.18510963
119	0xbe22735c	-0.15864319
120	0x3c7eb2f9	0.0155456
121	0x3d59bda5	0.053159375
122	0x3d56621d	0.052339662
123	0xbe0bb2af	-0.13642381
124	0xbd96430a	-0.073370054
125	0xbe069c57	-0.13145576
126	0xbd95d0f6	-0.07315247
127	0x3ceda828	0.029010847
128	0x3dd54b83	0.10414793
129	0xbc2f5533	-0.010701465
130	0xbd82e896	-0.063920185
131	0x3dc9060b	0.09815606
132	0xbe30e8f5	-0.17276366
133	0xbd936db1	-0.07198656
134	0x3c687685	0.0141884135
135	0x3c8c5cc0	0.01713407
136	0x3e2a772c	0.16647023
137	0xbdeeaf03	-0.116544746
138	0xbbea2d26	-0.0071464954
139	0xbe0f38ed	-0.13986559
140	0xbdb7b185	-0.08969406
141	0x3e02fd53	0.12791948
142	0xbdb03781	-0.086043365
143	0x3d387f57	0.045043316
144	0x3c3caf90	0.011516467
145	0xbce19f77	-0.02754186
146	0xbe183462	-0.14863732
147	0x3e147b71	0.14500214
148	0xbd6e755f	-0.058217403
149	0x3da748b2	0.081681624
150	0x3e1ebfe5	0.1550289
151	0x3dcedd67	0.10100823
152	0x3c8b8922	0.017033163
153	0xbe189647	-0.14901076
154	0x3c31a861	0.010843367
155	0xbe237078	-0.15960872
156	0xbdc18ab0	-0.09450281
157	0x3c38e501	0.011285068
158	0xbd85b767	-0.06529122
159	0x3e1790cd	0.14801331
160	0xbd2e2e94	-0.04252489
161	0xbd9a16db	-0.075238906
162	0x3dabc8b5	0.08387891
163	0xbe20404b	-0.15649526
164	0xbde6bce5	-0.112664975
165	0x3de24d44	0.110498935
166	0x3e27b146	0.16376218
167	0x3c4e2c49	0.012583801
168	0xbdc59c61	-0.096489675
169	0x3dc9ebed	0.098594524
170	0x3de79bf3	0.11309042
171	0xbdfda9b9	-0.12385888
172	0x3ded661c	0.115917414
173	0x3d85c00d	0.065307714
174	0x3dd93905	0.10606579
175	0x3db3c8bb	0.08778521
176	0xbc8557e5	-0.016277263
177	0x3dd77c62	0.10521771
178	0x3d8ebcfb	0.06969639
179	0x3dd33ef2	0.1031474
180	0x3de0f27b	0.109837495
181	0x3e298e88	0.16558278
182	0x3e1db073	0.15399341
183	0xbe058766	-0.13039932
184	0x3daa442d	0.08313785
185	0xbd632493	-0.0554548
186	0xbdd10131	-0.10205305
187	0x3bcf60d8	0.0063286833
188	0x3c7a1108	0.01526285
189	0xbd659796	-0.056052767
190	0xbdb64347	-0.08899551
191	0x3e0d6fc3	0.13812165
192	0x3c730b7c	0.014834281
193	0xbcb6a599	-0.02229576
194	0xbe26d868	-0.1629349
195	0x3d2210ec	0.03956692
196	0xbdde9a7f	-0.108693115
197	0xbe114b43	-0.14188866
198	0x3e0dc612	0.13845089
199	0xbca98d59	-0.020697283
200	0xbdf610e9	-0.12014944
201	0x3dee2214	0.11627594
202	0x3e2585a7	0.16164266
203	0xbd7966c7	-0.06088903
204	0x3d83c6e7	0.06434422
205	0x3e0a41b0	0.1350162
206	0xbc368fd2	-0.011142688
207	0xbe386e33	-0.18010788
208	0xbd77dc91	-0.060513083
209	0xbd95d078	-0.07315153
210	0xbdb5fa38	-0.08885616
211	0x3dc0b0ac	0.094086975
212	0xbe2f32f4	-0.17109281
213	0xbd3c3b1a	-0.0459548
214	0xbcf21f2a	-0.029555876
215	0x3d1b6e17	0.037946787
216	0x3d921c23	0.07134273
217	0xbd372845	-0.04471614
218	0x3e1675f9	0.1469344
219	0xbd98d0ec	-0.07461724
220	0x3d587ba3	0.052852284
221	0xbdf8a5a0	-0.121409655
222	0x3d90beac	0.07067618
223	0xbe043485	-0.1291066
224	0x3ca6e41e	0.020372447
225	0x3df70be4	0.12062815
226	0x3dd8ebaa	0.10591824
227	0xbde2289c	-0.11042902
228	0x3de9c6b5	0.114148535
229	0x3e097952	0.13425186
230	0xbe31dbfc	-0.17369074
231	0xbdea8e50	-0.11452925
232	0x3c10eed9	0.008846008
233	0x3dcc968a	0.099896505
234	0x3e1e4e2f	0.15459512
235	0xbd33dc13	-0.04391105
236	0x3d2c183d	0.042015303
237	0x3e1a7a85	0.150858
238	0xbdd19d57	-0.10235088
239	0xbda49fc4	-0.080382854
240	0x3e2b672b	0.16738574
241	0xbdecafbc	-0.11556956
242	0xbe1811b0	-0.14850497
243	0x3c823345	0.015893588
244	0xbd0ba69f	-0.03409445
245	0xbdd7138f	-0.105017774
246	0x3de18d9b	0.11013337
247	0xbd1c99f2	-0.03823275
248	0x3d4b97e0	0.049705386
249	0xbe0f7af2	-0.14011744
250	0xbe2c7f7c	-0.16845506
251	0x3e025bce	0.12730333
252	0xbe15920c	-0.14606494
253	0x3d1b7de3	0.03796185
254	0xbd39d865	-0.045372386
255	0xbc9f6497	-0.019457145

encoder_layers.layers.0.attention.linear_k.bias f4 [32]
0	0xbda5f880	-0.08104038
1	0xbe2659dc	-0.16245216
2	0x3e21e775	0.1581095
3	0xbdbdfecc	-0.09277114
4	0xbcee0ede	-0.029059824
5	0x3e264f36	0.16241154
6	0x3ddc5289	0.1075793
7	0x3dddf8a2	0.108384386
8	0x3e2c027a	0.1679782
9	0x3e2d43f0	0.16920447
10	0xbdc53cff	-0.09630775
11	0x3e1ddd17	0.1541637
12	0x3db2e070	0.08734214
13	0xbdd69416	-0.10477464
14	0xbd8e2832	-0.069412604
15	0x3ca408b9	0.02002369
16	0x3da5d45e	0.080971465
17	0xbdc9277e	-0.09821986
18	0x3d92cdf9	0.071681924
19	0xbd981851	-0.07426513
20	0x3e058b35	0.13041385
21	0x3dfdac0c	0.12386331
22	0x3d9a987e	0.07548617
23	0xbb5550ec	-0.0032549454
24	0x3e24ce81	0.160944
25	0xbd77ead7	-0.060526695
26	0xbe2336db	-0.15938894
27	0x3d65b64b	0.05608205
28	0xbd976192	-0.07391657
29	0xbe334c60	-0.17509604
30	0x3d6d4ffc	0.057937607
31	0x3df90a44	0.12160161

encoder_layers.layers.0.attention.linear_v.weight f4 [32, 32]
0	0x3ced45bf	0.028963922
1	0xbd4e12d6	-0.050310932
2	0xbb6bc549	-0.0035975745
3	0x3e1d274e	0.15347025
4	0xbe473e81	-0.19457437
5	0xbe67ce50	-0.22637296
6	0xbe2312ef	-0.15925191
7	0x3e29f12a	0.16595903
8	0xbde3b026	-0.11117582
9	0x3d4d961c	0.050191984
10	0xbd16800e	-0.036743216
11	0xbd9787ed	-0.07398973
12	0x3e3f0065	0.18652494
13	0x3da09edc	0.078428
14	0x3e41b34c	0.18916053
15	0xbe0a769c	-0.13521808
16	0xbe56f471	-0.20991684
17	0xbe18b68a	-0.14913383
18	0xbe8162d1	-0.25270703
19	0xbce29ae0	-0.02766174
20	0xbcdb3a2a	-0.026761133
21	0xbda1f413	-0.079078816
22	0xba80556a	-0.000979108
23	0x3df372fb	0.11887165
24	0xbd504bdf	-0.050853606
25	0x3e0cd4d4	0.13753062
26	0x3e244b83	0.1604443
27	0x3c99769a	0.018733311
28	0x3d18fcf3	0.037350606
29	0xbddc7340	-0.1076417
30	0x3c545a1c	0.012960937
31	0xbccbc8cd	-0.024876023
32	0x3e0128e0	0.12613249
33	0x3e21c38a	0.15797248
34	0x3e5af305	0.21381767
35	0x3e23e0b9	0.16003694
36	0x3c923319	0.01784663
37	0x3e38fbe4	0.18064839
38	0xbe58a452	-0.21156433
39	0xbe08fe1d	-0.13378187
40	0x3e8182d7	0.25295135
41	0x3e3d066f	0.18459485
42	0xbe0e00b1	-0.13867451
43	0xbd9ea7db	-0.0774686
44	0x3e589595	0.21150811
45	0x3d8a3dcd	0.06750069
46	0xbe274592	-0.16335133
47	0xbe124f54	-0.14288074
48	0x3cd07cbf	0.025450109
49	0xbe59cb0d	-0.21268864
50	0xbc956358	-0.018235847
51	0x3e750195	0.23926385
52	0x3e10c1e3	0.14136462
53	0xbe546747	-0.20742522
54	0xbe360db9	-0.17778672
55	0x3d8aa7df	0.067703
56	0x3e084f9e	0.13311622
57	0x3dcf25a1	0.10114599
58	0x3dd6a52f	0.10480725
59	0xbdfab963	-0.12242391
60	0xbc69e6d1	-0.014276222
61	0xba60f0a0	-0.0008580778
62	0x3c27efb7	0.010250024
63	0x3d836d10	0.064172864
64	0xbd4df33b	-0.05028079
65	0xbe0c5e80	-0.13707924
66	0xbe30649b	-0.17225878
67	0x3cb44933	0.02200756
68	0xbe029235	-0.12751086
69	0xbd6b7cba	-0.057491995
70	0x3cca36a7	0.024684263
71	0xbe0e9c23	-0.13926749
72	0x3d916540	0.0709939
73	0xbdaed847	-0.085373454
74	0xbc0a802a	-0.008453408
75	0x3e61619b	0.2200989
76	0xbdb87154	-0.090059906
77	0xbda2a287	-0.07941156
78	0x3b7ff647	0.0039056705
79	0xbe5fca03	-0.21854405
80	0x3dbcdaf2	0.09221448
81	0x3e0d8a78	0.13822353
82	0x3dfc7a65	0.123280324
83	0xbd5d3d59	-0.054013584
84	0xbcc5d854	-0.024151005
85	0x3d768699	0.060186956
86	0xbb03cccc	-0.0020111082
87	0xbda26d5d	-0.07931016
88	0x3d981083	0.07425024
89	0xbe101796	-0.14071497
90	0xbd1d953a	-0.03847239
91	0x3c2ae995	0.010431667
92	0x3d7f5d33	0.06234474
93	0x3c23ee47	0.01000554
94	0x3e0d0662	0.13771966
95	0x3db87143	0.09005978
96	0xbda5c2a0	-0.080937624
97	0x3e355590	0.17708421
98	0xbdc8b7da	-0.09800692
99	0xbce6b973	-0.028164601
100	0xbdde89fa	-0.10866161
101	0x3c7e58d3	0.015524107
102	0xbe08b1db	-0.13349096
103	0xbd53e792	-0.051734515
104	0x3cda749d	0.026666934
105	0x3d95170b	0.07279786
106	0xbd8fa809	-0.07014472
107	0xbdee3a90	-0.11632264
108	0x3e2a11ee	0.16608402
109	0xbe1186c5	-0.14211567
110	0x3d5a08be	0.053230993
111	0xbbe353b4	-0.0069374684
112	0xbe6af8b5	-0.22946437
113	0xbe1f1b58	-0.15537775
114	0xbe1e1e4e	-0.15441248
115	0xbd9290fb	-0.07156559
116	0x3d8bcccd	0.06826172
117	0xbe55b128	-0.20868361
118	0x3e986bd4	0.29769766
119	0xbcc13900	-0.02358675
120	0x3e1b8a4b	0.15189473
121	0x3e19b3fb	0.15010063
122	0xbe2e979e	-0.17050025
123	0x3e698f57	0.22808586
124	0x3e23fff2	0.16015604
125	0x3e337a10	0.17527032
126	0x3d966ddc	0.07345173
127	0x3e2cbd95	0.16869195
128	0x3e3c1fe0	0.18371534
129	0x3e061064	0.1309219
130	0xbe10aecb	-0.14129178
131	0x3e27daec	0.16392106
132	0xbdd4a2c0	-0.103826046
133	0xbe4fb103	-0.20282368
134	0x3e235f52	0.1595433
135	0x3d2a423b	0.04156707
136	0xbe0a4a05	-0.13504799
137	0x3e0c4df5	0.13701613
138	0x3e610ec6	0.21978292
139	0x3d8700ab	0.06591924
140	0x3d7ac87b	0.06122635
141	0xbe531ace	-0.20615694
142	0x3d5c32c2	0.053759344
143	0x3e289aaa	0.1646525
144	0x3c418112	0.011810558
145	0xbca660e8	-0.02030988
146	0xbe244f4b	-0.16045873
147	0xbdbe81ff	-0.093021385
148	0x3e2768a4	0.16348511
149	0x3cdc0525	0.026857922
150	0xbde0eb87	-0.10982423
151	0xbe84231a	-0.2580803
152	0x3db8ea71	0.09029091
153	0xbd9d7316	-0.076879665
154	0xbdc18846	-0.0944982
155	0x3ccc6d4a	0.024954457
156	0xbe172654	-0.14760715
157	0x3e220496	0.15822062
158	0x3d99a0d2	0.07501377
159	0xbe3eb04a	-0.18621936
160	0xbd83911d	-0.064241625
161	0xbe6ae1fa	-0.22937766
162	0x3e4be8a3	0.19912963
163	0x3cfa806c	0.030578814
164	0xbca2022c	-0.019776426
165	0xbde5be08	-0.11217886
166	0xbde10407	-0.10987096
167	0xbe8022d3	-0.2502657
168	0x3e02e78e	0.12783644
169	0x3d99da4b	0.07512339
170	0x3e2be5f0	0.16786933
171	0x3d944944	0.07240537
172	0x3e42c161	0.1901908
173	0xbc3495b7	-0.011022023
174	0x3e2838a2	0.16427854
175	0x3e3de228	0.18543303
176	0x3d7f6c9b	0.062359434
177	0x3c6072e8	0.013699271
178	0x3dfd794b	0.123766504
179	0x3d908107	0.0705586
180	0xbc9acf60	-0.018897712
181	0x3d38f4b1	0.04515523
182	0x3e6515b3	0.22371559
183	0xbdf73962	-0.12071492
184	0x3e1bef23	0.15227942
185	0x3e6d281d	0.23159833
186	0x3e13e25f	0.14441822
187	0x3e01c096	0.12671122
188	0x3d4e2b95	0.05033453
189	0xbba9f7df	-0.0051870192
190	0x3e6358fa	0.2220191
191	0xbdc7d4f5	-0.09757415
192	0x3dc29923	0.09501865
193	0x3daffafd	0.08592794
194	0x3be96e96	0.0071237786
195	0x3ca35dfb	0.019942274
196	0x3e845bfb	0.25851426
197	0x3cd7d797	0.026347918
198	0xbb9b5449	-0.004740272
199	0x3e133b7e	0.14378163
200	0xbd46d2e7	-0.048540976
201	0xbe35b625	-0.17745264
202	0xbdd7c0d6	-0.105348274
203	0xbd36f7be	-0.04466986
204	0xbe0e63fa	-0.13905326
205	0xbd658884	-0.056038395
206	0xbe2746de	-0.16335627
207	0x3db53009	0.088470526
208	0xbe4d6fb4	-0.20062143
209	0xbc68a41b	-0.014199282
210	0x3e86bbab	0.26315054
211	0x3e2856d4	0.16439372
212	0x3df84ec6	0.121244
213	0xbe1cb117	-0.1530193
214	0x3c8f6df7	0.01750849
215	0x3e4e8212	0.20166805
216	0x3de59c8e	0.11211501
217	0xbde2619f	-0.11053776
218	0x3e0b2931	0.13589932
219	0xbd641d26	-0.05569186
220	0x3e27404d	0.16333123
221	0x3dfbc999	0.12294311
222	0x3d4fdb34	0.050746158
223	0x3e698ef0	0.22808433
224	0x3b055efb	0.0020350802
225	0x3dd0323e	0.10165833
226	0x3c1f9ea8	0.009742416
227	0x3e0bf942	0.13669303
228	0xbe1d1820	-0.15341234
229	0x3da11e1e	0.078670725
230	0xbc7da114	-0.015480299
231	0xbd3d03f0	-0.046146333
232	0x3e105044	0.14093119
233	0x3e1edfbf	0.1551504
234	0xbe1e2766	-0.15444717
235	0xbe05b327	-0.13056622
236	0x3e37efc4	0.17962557
237	0x3e107aaa	0.14109293
238	0xbde3d51d	-0.111246325
239	0x3d213ed2	0.03936655
240	0xbdaa996d	-0.08330045
241	0x3d52b3a0	0.051440835
242	0xbe3572b7	-0.17719541
243	0x3e83eced	0.25766698
244	0xbe5eab6d	-0.21745081
245	0xbd8b52ae	-0.06802879
246	0x3ccb56e7	0.024821712
247	0x3e09c1ac	0.13452786
248	0x3e66d15f	0.22540806
249	0xbe7249b7	-0.23660932
250	0x3e1d7f17	0.15380512
251	0x3d8dd59b	0.06925508
252	0xbe074390	-0.13209367
253	0x3d9fd39c	0.07804033
254	0xbe014557	-0.12624107
255	0xbd3a45ab	-0.045476597

encoder_layers.layers.0.attention.linear_v.bias f4 [32]
0	0xbd2f4494	-0.04279001
1	0x3de88a36	0.11354487
2	0x3c915787	0.017741932
3	0x3c4bc857	0.012437901
4	0x3ddc56ca	0.10758741
5	0xbccfa809	-0.02534868
6	0xbd1ef006	-0.038803123
7	0x3b3a143e	0.0028393413
8	0x3e3057be	0.17220971
9	0xbdbd9554	-0.09256998
10	0xbd0f8f66	-0.035048865
11	0xbdf716de	-0.120649084
12	0x3d6f8c0e	0.058483176
13	0xbc8272c7	-0.01592387
14	0xbda27c58	-0.07933873
15	0x3d88c508	0.06678206
16	0x3d20182e	0.03908556
17	0x3dfc3394	0.12314525
18	0x3d8b9eac	0.06817374
19	0x3e329856	0.17440924
20	0xbcf0d196	-0.029396813
21	0xbcba8d66	-0.022772502
22	0xbdecff85	-0.11572174
23	0xbe1fb78a	-0.15597358
24	0x3e018d63	0.12651591
25	0x3acaf80c	0.0015485301
26	0xbd1947f0	-0.03742212
27	0xbe2ab6d8	-0.16671312
28	0xbd8001e6	-0.06250362
29	0xbe3187bc	-0.17336935
30	0x3d99bbb2	0.07506503
31	0xbbf3ae69	-0.007436563

encoder_layers.layers.0.attention.linear_layer.weight f4 [32, 32]
0	0xbdba6b3c	-0.091024846
1	0x3cb6ca32	0.022313211
2	0x3d2c818b	0.04211573
3	0x3e682179	0.22669019
4	0xbe215ab3	-0.15757255
5	0x3e22302f	0.15838693
6	0x3d27b143	0.040940534
7	0x3dcc8c12	0.09987654
8	0x3e1e3833	0.15451126
9	0x3d3bf744	0.045890108
10	0x3db0f48e	0.08640395
11	0xbdff790f	-0.12474262
12	0xbd54e477	-0.051975694
13	0x3e410863	0.18850856
14	0x3d81b180	0.063326836
15	0x3dd9ac74	0.10628596
16	0x3de11769	0.10990793
17	0x3e6c50f8	0.23077762
18	0x3e80b384	0.2513696
19	0x3e780b07	0.24222957
20	0x3ccae52d	0.024767483
21	0x3d85b9b9	0.065295644
22	0x3e185ca9	0.14879097
23	0xbd6ae9e2	-0.057351954
24	0x3e0fdf00	0.14049911
25	0xbe212a71	-0.15738846
26	0x3c51cd60	0.012805313
27	0x3e049888	0.12948811
28	0x3c2773b1	0.010220454
29	0xbe3cdb74	-0.1844309
30	0xbd264d05	-0.040600795
31	0xbd83983d	-0.064255215
32	0xbd7c7275	-0.061632592
33	0x3dcf5873	0.10124292
34	0xbcaeabd2	-0.021322165
35	0xbe80dd19	-0.25168684
36	0xbe27fb9e	-0.16404578
37	0xbc80ce1b	-0.015723279
38	0xbe295b1b	-0.1653866
39	0x3e25a488	0.16176045
40	0x3dfab31c	0.12241194
41	0x3e0284c7	0.12745963
42	0xbd98adcd	-0.07455025
43	0xbe175c6c	-0.1478135
44	0xbe16171b	-0.14657252
45	0x3e81711a	0.25281602
46	0x3dd0a6d2	0.101880684
47	0xbe09836a	-0.13429037
48	0xbb04b433	-0.0020249009
49	0x3cd8a60a	0.026446361
50	0xbe522ca3	-0.2052484
51	0xbe152aa5	-0.14567049
52	0x3d28937d	0.04115628
53	0xbd623514	-0.0552264
54	0x3dea14b7	0.11429732
55	0xbc7b733f	-0.015347301
56	0xbdc838fc	-0.09776494
57	0x3e573d92	0.21019581
58	0x3cec7278	0.028863177
59	0xbe4939f8	-0.1965102
60	0xbd8b0c43	-0.06789448
61	0x3e154b8e	0.14579603
62	0xbe133120	-0.14374208
63	0x3df250ed	0.118318416
64	0x3e29bf0c	0.16576785
65	0x3e5e2804	0.21694952
66	0x3c90b846	0.017665993
67	0x3df059b1	0.11735857
68	0x3e7da207	0.2476884
69	0x3d038709	0.0321112
70	0xbe63801c	-0.22216839
71	0x3e37f648	0.17965043
72	0x3e3e9ebb	0.18615238
73	0x3e7e0611	0.24807002
74	0xbe84fce2	-0.25974184
75	0x3bc36909	0.005963449
76	0xbdf880f6	-0.12133972
77	0x3de33b43	0.11095288
78	0xbdefe102	-0.11712839
79	0x3dd3f571	0.103495486
80	0x3e4adc70	0.19810653
81	0xbe092157	-0.13391624
82	0xbe6427b1	-0.22280766
83	0x3df1b008	0.118011534
84	0xbdc65953	-0.09685006
85	0x3de0ee7f	0.109829895
86	0x3eb407b9	0.35162142
87	0x3e039756	0.12850699
88	0xbeb1808f	-0.34668395
89	0x3dff9512	0.12479605
90	0x3c19f867	0.009397603
91	0x3d6cf1b7	0.057847705
92	0x3e5fbc94	0.2184928
93	0x3e594c7f	0.21220587
94	0xbe5fcab5	-0.2185467
95	0x3e13d35f	0.144361
96	0x3e0b6734	0.13613588
97	0xbcbcd066	-0.02304859
98	0xbd493c87	-0.04912999
99	0xbd8e3aa4	-0.069447786
100	0xbc2591c6	-0.010105556
101	0xbe8b8d79	-0.27256373
102	0x3e1eb04f	0.15496944
103	0xbd9b049e	-0.0756924
104	0x3da29b97	0.07939833
105	0xbca898dd	-0.020580703
106	0xbdebaedb	-0.115079604
107	0x3dab3d5c	0.08361313
108	0x3d01d727	0.031699326
109	0x3de27459	0.11057348
110	0x3e11cb58	0.14237726
111	0x3df23203	0.11825945
112	0x3e25f25d	0.16205736
113	0x3d99e6fa	0.075147584
114	0xbd7139f9	-0.058893178
115	0x3dd1bb17	0.10240763
116	0xbe377cca	-0.17918697
117	0x3a8d6364	0.0010787067
118	0x3b2d82b6	0.0026475615
119	0xbd807d25	-0.062738694
120	0x3e7ee6a0	0.24892664
121	0xbd86684b	-0.06562861
122	0xbe1c728e	-0.15278074
123	0xbc93eeae	-0.018058147
124	0xbe2512a0	-0.16120386
125	0x3ea18e07	0.3155367
126	0xbd85fcbb	-0.06542345
127	0xbe0d3ec0	-0.13793468
128	0xbe1fddd7	-0.15611969
129	0xbde91f2f	-0.11382901
130	0xbd9c455b	-0.07630416
131	0x3dcebc64	0.100945264
132	0xbd4d34c3	-0.050099146
133	0x3e043425	0.12910517
134	0x3d338326	0.043826245
135	0xbe47c11d	-0.1950726
136	0x3e18a35c	0.14906067
137	0x3d9bb9b6	0.07603781
138	0x3e7efb75	0.2490061
139	0xbdf6da1a	-0.12053318
140	0xbe1804c8	-0.14845574
141	0xbe910aa7	-0.2832844
142	0x3cb91fdc	0.0225982
143	0x3dee78e3	0.11644151
144	0x3e02d1e2	0.12775376
145	0xbe83c2c9	-0.25734547
146	0x3ca10f01	0.019660475
147	0xbe777ddc	-0.24169105
148	0xbd3eaa0d	-0.04654889
149	0xbe530693	-0.20607977
150	0xbb903a4b	-0.0044014803
151	0xbc7d8d84	-0.0154756345
152	0xbc1b539a	-0.009480381
153	0x3e471706	0.19442376
154	0x3df2b62a	0.11851151
155	0xbc0d99c7	-0.00864262
156	0x3e121acb	0.14268033
157	0x3dee9e65	0.11651305
158	0xbdf6c260	-0.12048793
159	0x3d89dd5a	0.067316726
160	0x3c6c3136	0.01441603
161	0xbe372f50	-0.17889142
162	0xbdc8b839	-0.09800763
163	0xbe39b96e	-0.18137142
164	0xbdd9d5a5	-0.106364526
165	0xbbc31289	-0.0059531373
166	0x3d941170	0.072298884
167	0x3e14d11c	0.14532894
168	0x3ce1f013	0.027580297
169	0xbdc09405	-0.094032325
170	0x3d6d9c6b	0.0580105
171	0x3df152ce	0.11783372
172	0x3dd4b2e4	0.10385683
173	0xbe74c1b3	-0.23902015
174	0xbe2e65c6	-0.17031011
175	0x3c96ec37	0.018423183
176	0xbd953e7a	-0.07287307
177	0xbd4bfd75	-0.049802262
178	0xbd4884b1	-0.04895467
179	0xbdc50672	-0.0962037
180	0xbe5afc5c	-0.2138533
181	0xbc93350d	-0.017969633
182	0x3d536e5a	0.05161891
183	0x3ddb437d	0.10706232
184	0xbe2e9e11	-0.17052485
185	0x3df76719	0.12080211
186	0x3e2b1ea8	0.16710913
187	0x3c9a8a4a	0.01886477
188	0x3d9484fd	0.07251928
189	0x3e84fb4b	0.2597297
190	0xbde68213	-0.112552784
191	0xbe7186bd	-0.23586555
192	0xbe5d88d1	-0.21634223
193	0xbe2d9bc3	-0.1695395
194	0xbd3d21d6	-0.046174847
195	0x3c17d148	0.009266205
196	0x3cf81d0c	0.030287288
197	0x3e21dc71	0.15806748
198	0x3bc4f52c	0.006010672
199	0x3e0b46e5	0.13601263
200	0x3d7b7252	0.06138832
201	0x3e4d3bd3	0.20042352
202	0x3d96675e	0.073439345
203	0x3c78c829	0.015184441
204	0x3e5520db	0.20813315
205	0x3d4de530	0.0502674
206	0x3dbf3217	0.09335726
207	0xbdcbbbfc	-0.099479645
208	0xbdb79c8f	-0.08965408
209	0xbd75127a	-0.059832074
210	0xbd2be792	-0.04196889
211	0x3e50c61f	0.20388077
212	0xbdd908be	-0.105973706
213	0x3e04b873	0.12960987
214	0xbde9977b	-0.11405846
215	0xbe451b89	-0.19248785
216	0xbe38931c	-0.18024868
217	0x3d98b1f5	0.074558176
218	0x3dff347f	0.12461185
219	0xbe5a4132	-0.21313933
220	0xbe4598b8	-0.19296539
221	0x3e3abb6e	0.18235561
222	0x3c48fc72	0.012267219
223	0x3e706376	0.23475441
224	0xbd522cdc	-0.051312312
225	0x3dc17508	0.0944615
226	0x3d9d59d5	0.0768315
227	0x3e2a5f8a	0.16638008
228	0xbde199ff	-0.110157005
229	0xbe2c74c5	-0.16841419
230	0x3e471b50	0.19444013
231	0xbdd4785d	-0.1037452
232	0xbe1b0456	-0.15138373
233	0xbd55b203	-0.05217172
234	0x3e0c034c	0.13673133
235	0xbdeb7ce6	-0.11498432
236	0xbe041fa1	-0.1290269
237	0xbdc1444f	-0.09436857
238	0xbce167f3	-0.027515387
239	0xbe4b19a7	-0.19834004
240	0xbe40ea15	-0.18839295
241	0x3e84ece3	0.2596198
242	0x3cb5de8e	0.022200849
243	0x3e399971	0.1812494
244	0xbe249110	-0.16070962
245	0xbdcf7f42	-0.101316944
246	0x3dbda1e5	0.092593946
247	0xbe023170	-0.12714171
248	0xbca9c4bc	-0.020723693
249	0xbe15007c	-0.14550966
250	0xbe35f7ba	-0.17770281
251	0xbca18b7e	-0.019719835
252	0x3d5ea735	0.05435868
253	0x3ddef1b8	0.10885948
254	0xbdba493a	-0.09095998
255	0x3d223a15	0.039606173

encoder_layers.layers.0.attention.linear_layer.bias f4 [32]
0	0x3d9128e4	0.070878774
1	0x3d952635	0.07282678
2	0xbdcc8031	-0.09985388
3	0x3c03e575	0.008050312
4	0x3e2b3b6b	0.16721885
5	0x3db0b232	0.08627738
6	0xba6e6cd5	-0.0009095197
7	0xbdb10ef8	-0.08645433
8	0xbd338d0d	-0.04383569
9	0x3c717d55	0.014739354
10	0x3d9e2f49	0.07723863
11	0xbca8c157	-0.020600004
12	0x3d8f7a58	0.07005757
13	0xbcbed43c	-0.02329456
14	0x3e0a8333	0.13526611
15	0xbe25649f	-0.16151665
16	0xbdd9c7b9	-0.10633797
17	0x3b904d68	0.004403759
18	0xbd34d67e	-0.04414987
19	0xbce3f074	-0.027824618
20	0x3e7da28a	0.24769035
21	0xbdf48fbe	-0.11941479
22	0xbbf281c6	-0.007400724
23	0xbd6f3f8f	-0.058410224
24	0xbe3460f1	-0.17615105
25	0x3c13a617	0.009011767
26	0xbdba2e17	-0.09090822
27	0x3c97f662	0.018550102
28	0xbdc55033	-0.096344374
29	0xbd7cf044	-0.061752573
30	0x3cdfc80c	0.02731707
31	0xbdbb6999	-0.091510005

encoder_layers.layers.0.feed_forward.0.weight f4 [128, 32]
0	0x3d946961	0.07246662
1	0xbdefa69d	-0.11701701
2	0x3d6eee8c	0.058332965
3	0x3da0f8dd	0.07859967
4	0x3d86a9b2	0.065753356
5	0xbd50ae21	-0.050947312
6	0xbd14435c	-0.03619705
7	0x3df6835c	0.120367736
8	0x3e658e61	0.22417594
9	0xbe22b7e5	-0.15890463
10	0x3dd6ee25	0.10494641
11	0x3e19e6b2	0.1502941
12	0xbe2d734f	-0.16938518
13	0xbe1a95c1	-0.15096189
14	0x3e016af8	0.12638462
15	0xbe5e0474	-0.21681386
16	0xbc1e94bb	-0.009679015
17	0x3dedba13	0.116077565
18	0x3dd4df18	0.10394114
19	0x3df1d48b	0.118081175
20	0xbdb5cc1b	-0.08876821
21	0x3de12fab	0.1099542
22	0x3e262a29	0.1622702
23	0x3e7ad01e	0.24493453
24	0x3e1833b4	0.14863473
25	0xbe629dec	-0.22130555
26	0xbd9a22d7	-0.075261764
27	0x3cdbaafd	0.026814932
28	0x3dff8e49	0.124783106
29	0xbe1d025c	-0.15332931
30	0xbe408d48	-0.18803895
31	0xbec75bd2	-0.3893724
32	0xbc9c81e6	-0.01910491
33	0x3e375dcf	0.17906879
34	0x3c205059	0.009784781
35	0xbdd0adce	-0.101894006
36	0x3e27c1d9	0.16382541
37	0xbd0c79b0	-0.034295738
38	0x3e9e5070	0.30920744
39	0xbe0e76de	-0.13912532
40	0xbdbb1fcf	-0.091369264
41	0xbe13f640	-0.14449406
42	0xbb594233	-0.003315103
43	0x3dc99514	0.098428875
44	0xbdd287d1	-0.10279811
45	0x3e21d700	0.15804672
46	0xbd98b98f	-0.074572675
47	0xbd85c428	-0.065315545
48	0x3d9d0e76	0.07668774
49	0x3cce1128	0.025154665
50	0x3e483ed7	0.19555221
51	0xbe1c3c02	-0.15257266
52	0xbd28756a	-0.0411276
53	0x3cb14952	0.021641407
54	0xbe0ef84c	-0.13961905
55	0x3e84d1d6	0.25941342
56	0x3d24b5a8	0.040212303
57	0xbe3fe3cf	-0.18739246
58	0x3d0505f5	0.032476384
59	0xbe39982b	-0.18124454
60	0x3d3ae167	0.045625117
61	0xbe6afbd2	-0.22947624
62	0x3e6c358a	0.23067299
63	0xbe3b2dc6	-0.1827918
64	0x3c329349	0.010899373
65	0xbd818514	-0.06324211
66	0x3db2a898	0.08723563
67	0x3e520140	0.2050829
68	0x3dd44205	0.10364155
69	0x3dd447f3	0.10365286
70	0xbe88d46d	-0.26724568
71	0x3e08625d	0.13318773
72	0x3e0e423f	0.13892458
73	0xbde9b47b	-0.11411377
74	0xbe0aabf3	-0.13542156
75	0x3d29da41	0.04146791
76	0x3e36f738	0.17867744
77	0x3ce78cf4	0.028265454
78	0x3d036236	0.032076083
79	0xbd8b0c66	-0.06789474
80	0x3db2e1c2	0.08734466
81	0x3d9bb14b	0.07602175
82	0xbe14710d	-0.1449625
83	0xbd7673a0	-0.060168862
84	0xbb910bf3	-0.0044264733
85	0x3d88a49a	0.0667202
86	0x3c67538f	0.014119043
87	0xbd89fb51	-0.06737388
88	0x3ddb7dad	0.1071733
89	0x3d4edddb	0.050504547
90	0x3cd10185	0.02551342
91	0xbe274220	-0.16333818
92	0xbb220c36	-0.0024726517
93	0xbdbb519b	-0.091464244
94	0xbde93116	-0.113863155
95	0x3e75a2e2	0.23987916
96	0xbe650eb3	-0.22368889
97	0xbcdf83c1	-0.027284505
98	0xbdfdaf23	-0.1238692
99	0x3e49f851	0.19723631
100	0xbdda4e75	-0.10659496
101	0x3e3f3711	0.1867335
102	0xbe02904c	-0.12750357
103	0xbac9f541	-0.0015408174
104	0xbd146bde	-0.036235683
105	0x3e55d8d5	0.20883496
106	0xbdbc3888	-0.0919047
107	0xbd2686c9	-0.040655885
108	0xbdda9df5	-0.10674659
109	0x3d71ba7b	0.059015732
110	0xbd32f6d0	-0.04369241
111	0xbe81bb04	-0.25337994
112	0xbdd315cb	-0.10306891
113	0x3d8e41a6	0.06946115
114	0x3d3f8184	0.046754375
115	0x3e43838d	0.19093151
116	0x3dec1892	0.11528124
117	0xbdef371d	-0.11680434
118	0xbbd4393d	-0.00647655
119	0xbe50ed76	-0.20403084
120	0x3dc8edd4	0.09810987
121	0x3e426640	0.18984318
122	0xbe4115ec	-0.18856019
123	0xbd963f63	-0.07336309
124	0xbd13a8c8	-0.036049634
125	0x3e45710d	0.19281407
126	0xbe283cc1	-0.16429426
127	0xbe20a429	-0.15687622
128	0xbd1a1415	-0.037616808
129	0x3e572c2c	0.21012944
130	0xbe53af04	-0.20672232
131	0xbdc101e4	-0.09424189
132	0x3da511cb	0.08060034
133	0x3d53d2f3	0.05171485
134	0xbe2416b7	-0.1602429
135	0x3e405e9b	0.18786089
136	0xbe8628c7	-0.26202986
137	0x3cbeb799	0.023280906
138	0xbd01e85f	-0.031715747
139	0x3e1337de	0.1437678
140	0x3e6f76c9	0.23385157
141	0x3bca6e66	0.0061777113
142	0xbe745790	-0.23861527
143	0x3e4d8b08	0.20072567
144	0xbe27b67a	-0.16378203
145	0xbe1978fe	-0.14987561
146	0x3d912239	0.070866056
147	0xbd0ac180	-0.033875942
148	0x3d2a7b96	0.041621767
149	0x3d650d25	0.05592074
150	0x3e14f507	0.14546596
151	0x3e1677a1	0.14694072
152	0x3d950967	0.07277184
153	0x3df288e9	0.1184252
154	0x3b2ed465	0.002667689
155	0x3e0ee014	0.13952667
156	0x3de9316b	0.11386379
157	0xbe131823	-0.14364676
158	0x3c937160	0.017998397
159	0x3e39c5f2	0.18141916
160	0x3e14711b	0.14496271
161	0xbd95b1e3	-0.0730932
162	0x3e4f135a	0.20222226
163	0x3c98b2f0	0.018640012
164	0xbdfad26c	-0.12247166
165	0x3daf1734	0.085493475
166	0xbe2c4ad2	-0.16825417
167	0x3d79eaf5	0.061015088
168	0xba39007a	-0.0007057261
169	0xbe1d41a0	-0.15357065
170	0xbe5baf1f	-0.21453522
171	0xbd81677a	-0.06318565
172	0x3cc852dd	0.024453575
173	0xbced4891	-0.028965266
174	0xbd148e43	-0.036268484
175	0xbba30eb5	-0.0049761184
176	0xbe19811b	-0.14990656
177	0xbd4b3484	-0.04961063
178	0xbe3293ab	-0.17439143
179	0x3dbd7e4c	0.09252605
180	0xbe476248	-0.19471085
181	0xbdef4b37	-0.11684268
182	0x3dfadb63	0.12248876
183	0xbd4c6a3e	-0.049906008
184	0xbd22330d	-0.039599467
185	0xbd8f7ee0	-0.07006621
186	0xbe53a0ae	-0.20666763
187	0xbd4e687a	-0.050392605
188	0xbdcff14c	-0.101534456
189	0xbe3560c4	-0.17712694
190	0xbd9d7104	-0.07687572
191	0x3de54a52	0.11195816
192	0xbdacd689	-0.08439357
193	0x3dc6a40b	0.096992575
194	0xbdc762cf	-0.09735643
195	0xbdaf8f56	-0.08572261
196	0x3e2c8984	0.16849333
197	0x3e2e0717	0.16994892
198	0xbda6c68c	-0.081433386
199	0xbccee899	-0.025257396
200	0xbd22d8d2	-0.039757557
201	0x3d0512f8	0.032488793
202	0xbe1dbbfc	-0.15403742
203	0xbd4eb640	-0.050466776
204	0x3b113980	0.0022159517
205	0xbdd34c96	-0.10317342
206	0xbe0b9737	-0.13631903
207	0x3d4158e9	0.047203932
208	0xbd41610e	-0.0472117
209	0x3e541d72	0.20714357
210	0x3e5891f7	0.21149431
211	0xbe170104	-0.14746481
212	0xbd6a77a6	-0.057243012
213	0xbe51e7ae	-0.20498535
214	0xbe0feaf8	-0.14054477
215	0xbbae4ac0	-0.0053189695
216	0x3e10a7aa	0.14126459
217	0x3d5f837b	0.05456875
218	0xbe529e56	-0.20568213
219	0x3de1950a	0.11014755
220	0x3d7e5175	0.062089402
221	0xbe28c5c5	-0.16481693
222	0x3d3e9a8b	0.046534102
223	0x3e552ddb	0.20818274
224	0x3dd516cd	0.104047395
225	0x3d0b013e	0.03393673
226	0xbd406cf5	-0.04697891
227	0x3dad47c9	0.084609576
228	0x3d7a84ac	0.061161682
229	0x3e1e180a	0.15438858
230	0x3e07ade1	0.13249923
231	0xbd9a51d2	-0.07535137
232	0xbd920b47	-0.07131057
233	0xbdc435ae	-0.09580551
234	0xbdf11895	-0.11772267
235	0x3cbb612c	0.022873484
236	0xbe1043c8	-0.14088356
237	0x3e1ca25d	0.15296312
238	0xbe0bb33a	-0.13642588
239	0xbe66076e	-0.22463772
240	0x3d5affea	0.053466715
241	0x3c9ae3a3	0.018907374
242	0xbd6811d8	-0.056657642
243	0x3e3035af	0.17207979
244	0xbe48047a	-0.19532958
245	0xbdb38ef4	-0.087675005
246	0xbe33d134	-0.17560273
247	0xbe11aa83	-0.14225201
248	0x3d93a10f	0.07208454
249	0xbb9a490a	-0.004708414
250	0xbe3c445c	-0.18385452
251	0xbcb0760e	-0.021540668
252	0xbe2f3b89	-0.17112555
253	0xbe1cf18a	-0.15326515
254	0x3d9bdc07	0.07610326
255	0x3e6d8438	0.23194969
